weights/1900_weights/rnn_mlstm_mlstm_wmx:0.npy (npy, 76080 bytes, 1 tensors)

array f4 [10, 1900]
000000 3f b9 c7 3e 66 fd 38 3f 9f fe d2 3d f0 f8 e6 3e
       0.3900852 0.72261655 0.10302471 0.451118
000010 f5 78 89 3f 6b 3f 90 be 0c c3 9f 3e c9 70 a1 be
       1.0740038 -0.28173384 0.31203496 -0.3153136
000020 a2 8a 84 3e cd fc 1e be dc 4a 98 3e 7e 5c 99 be
       0.25887018 -0.15526123 0.29744613 -0.29953378
000030 1b 73 fa 3e 02 1d c8 bd 8c be a7 3e 0d bc 13 be
       0.48915944 -0.09771158 0.32762563 -0.14427204
000040 ae e5 04 3f 71 a4 0e 3c 9b 5b 44 be 40 8f 3d be
       0.51912963 0.008706198 -0.1917557 -0.18511677
000050 29 b8 41 3e 17 13 ee 3e 91 b3 bd be 3d 64 81 be
       0.18917908 0.4649894 -0.3705106 -0.25271788
000060 d4 a4 11 3f f1 eb d5 bd 88 56 2e 3f fd 67 26 be
       0.5689213 -0.10445393 0.68100786 -0.16250606
000070 a2 11 5e 3e 5c 60 b7 bc b5 74 c2 bb b8 cf bf 3d
       0.21686414 -0.022384815 -0.0059343227 0.09365791
000080 b6 ca ae 3e 7a d4 de be 05 69 4c 3e 02 24 22 bf
       0.3413903 -0.43521482 0.19961937 -0.63336194
000090 8c c7 e8 bd 14 ef 67 3e ed 1f 69 3e 93 ce 13 be
       -0.113661855 0.22649795 0.22766085 -0.1443427
0000a0 3d df 69 be 7a 8f bd be 6a 6e 48 3e cb 5b 84 3c
       -0.22839065 -0.37023526 0.1957337 0.016157052
0000b0 eb 97 14 be 28 ec 77 3d a7 dd 20 be 0f f1 1d bd
       -0.14511077 0.06052795 -0.15709554 -0.03855997
0000c0 28 76 9f be 9c ad 42 3e 39 24 87 3e c5 79 87 be
       -0.31144834 0.19011539 0.26394823 -0.2646009
0000d0 d9 bc 72 3c 09 ad 82 3e 05 63 b6 3e 17 bf b0 be
       0.014815533 0.2552264 0.3562242 -0.3452079
0000e0 8f 4d a0 be 50 e2 11 3e aa ec 94 be 6f 6b 6f 3e
       -0.31309173 0.14246488 -0.2908681 0.23380826
0000f0 dc 4f b5 be a0 8c 82 be ff 58 cf bd e6 eb 5c 3c
       -0.3541249 -0.25497913 -0.101243965 0.013483977
000100 62 55 08 3f 82 bb 03 bd c1 14 b9 bd 7c 96 f8 3d
       0.53255284 -0.032161243 -0.090371616 0.121380776
000110 d5 33 44 be 75 c4 39 be c8 72 d2 3d 45 e1 b1 3e
       -0.19160397 -0.18141349 0.10275799 0.3474218
000120 48 20 c7 3d 12 a9 61 be d6 ea 18 bc c1 a9 57 3e
       0.09722954 -0.22037151 -0.009333333 0.2106085
000130 ca ae 2c 3e af 00 c9 bd 2b 45 d9 3d 23 dc 33 3e
       0.16863552 -0.098145835 0.10608896 0.17564444
000140 7f 6c 22 bd ee 9f a8 3e d4 eb 21 bd 11 c2 3c be
       -0.03965425 0.32934517 -0.039531544 -0.18433405
000150 01 20 76 be 08 b4 6d 3e 47 2a fe 3e 1a 91 26 be
       -0.24035646 0.23213208 0.4964163 -0.1626629
000160 81 be 02 bd 0b 7c 69 3d 5b e4 85 be df f2 64 3c
       -0.03191996 0.057003062 -0.26150784 0.013973921
000170 8a 59 98 3d 0f 08 86 bd 8a 44 44 3e e4 32 57 3e
       0.07438953 -0.06544506 0.1916677 0.21015507
000180 9a 63 7d 3e 5a 70 54 be d7 c3 35 3e 8c 45 5d 3e
       0.24745026 -0.20745984 0.17750488 0.21608561
000190 4d 64 65 3e c0 a1 a3 3e 4f f2 8f 3e f0 ac 42 be
       0.22401543 0.31959343 0.28114554 -0.19011283
0001a0 57 9f 40 3e 4f d4 c7 bd 0d 5f 08 3e 70 63 14 3e
       0.18810783 -0.097572915 0.13317509 0.14491057
0001b0 d2 03 6e bd 9e 78 9a bd 42 02 88 be 62 c0 62 be
       -0.058109112 -0.07542537 -0.26564223 -0.221437
0001c0 31 40 d4 bd cf ff df bd f3 69 a8 be 3b fc be bd
       -0.10363806 -0.109374635 -0.32893333 -0.09325453
0001d0 7d b2 73 3e 44 e4 80 3e d9 e1 84 3e 50 e3 08 3e
       0.23798557 0.25174153 0.25953558 0.13367963
0001e0 6a a6 be be cc 1c c0 3e 25 b8 0f be 40 f5 8e be
       -0.3723634 0.3752197 -0.1403509 -0.27921486
0001f0 0f 02 69 3e 38 a5 c1 3d b7 35 88 be 0b 0f 57 bd
       0.22754692 0.09455341 -0.2660348 -0.05250458
000200 a0 48 1b 3e 9b 7b bc be fe 8b 2e 3e 6f 09 9a be
       0.15164423 -0.36813053 0.1704559 -0.30085322
000210 12 7d 6e be 50 30 bb be 86 50 fd 3d 5d 2f ca 3d
       -0.23289898 -0.36560297 0.12368874 0.09872315
000220 92 f3 0e 3e 6b 37 46 3e 3e f7 93 be d0 a8 ff 3b
       0.13960102 0.19357078 -0.28899568 0.0078021064
000230 90 2e 19 be fc 3a 6d 3c fc 1d 81 be fe fe c7 3e
       -0.14959168 0.014479395 -0.2521819 0.3906173
000240 cb fd a7 be 27 4a c1 bd c9 93 da 3d a7 92 43 3e
       -0.32810816 -0.094379716 0.10672719 0.19098912
000250 88 4b f8 3d 50 a2 25 be a0 9d 9e bd e6 97 c9 3d
       0.121237814 -0.16175199 -0.07744908 0.098434255
000260 4a 1c df 3c 4d 50 76 be f0 30 26 3f e7 41 c4 3e
       0.027235169 -0.2405407 0.6491842 0.3833153
000270 4b 32 40 bd 60 d2 6d 3d 51 94 ac 3d db b1 2a 3f
       -0.046922963 0.058061957 0.084267266 0.66677636
000280 92 2c f6 3c df c7 11 be b7 80 46 be 83 af 37 3e
       0.03005055 -0.14236401 -0.19385038 0.17938046
000290 d5 2f a3 3d 35 7e 0a bf 82 2c 1b 3e f6 99 bd 3d
       0.079681076 -0.54098827 0.15153697 0.09257881
0002a0 02 c0 a9 bd 74 67 19 3e 85 66 21 be 89 e2 90 3b
       -0.08288576 0.1498087 -0.15761764 0.0044215363
0002b0 e9 ee 1b 3f 02 96 37 bd 59 9f 8d 3d d0 e0 97 be
       0.6091142 -0.044820793 0.06915159 -0.29663706
0002c0 a4 bb 3e 3e 01 53 e9 bd c8 3c 90 3e fb 55 b0 be
       0.18626267 -0.11392785 0.28171372 -0.34440598
0002d0 3f b7 af bd 3a d9 2a 3e 89 e2 9d 3e dc 13 4a 3e
       -0.08579873 0.16684428 0.30836895 0.19734138
0002e0 90 ff 53 3e c5 55 d4 be 57 04 2b be 50 13 9a be
       0.20702958 -0.41471687 -0.16700874 -0.3009286
0002f0 f1 02 de 3d 31 e6 7b 3e 9b d7 8f be 5d e3 fd 3d
       0.10840405 0.2459953 -0.2809418 0.12396882
000300 79 91 9e bc 20 b6 0d 3e 48 92 89 bd 3c d4 b1 3e
       -0.019356476 0.13839006 -0.06717354 0.34732234
000310 4e 6d 19 3e 1f e0 64 3e 27 4b 53 3e f4 bf c2 3e
       0.14983103 0.2235112 0.20634137 0.38037074
000320 ed c0 f7 bd 80 f7 7c be 5d 66 63 be 66 27 d4 bc
       -0.120973445 -0.24703789 -0.22207017 -0.025897693
000330 f6 41 b6 3e bb 3d 8b 3d c2 96 41 3e aa 15 9c be
       0.355972 0.067988835 0.18905166 -0.30485278
000340 b3 ab 66 be 6a e9 04 3e 6d f8 29 be f7 34 26 bf
       -0.22526436 0.12979665 -0.16598673 -0.6492457
000350 1b 38 52 3e 4d 83 99 bd d7 e8 b6 3e 6c 77 02 3e
       0.20529215 -0.07495747 0.35724518 0.12740868
000360 a4 f0 8a be 13 98 65 3d 5d 4c 29 3e 61 64 4d be
       -0.2713672 0.056053232 0.16533037 -0.20057823
000370 05 ab 3c be 7d d3 8d 3e 7c 63 11 3e 0e cf 3b be
       -0.18424614 0.27700415 0.14198107 -0.18340704
000380 8b ad 84 3e c4 37 e0 3e a8 61 44 be dd f5 d1 be
       0.25913653 0.43792546 -0.19177878 -0.4100789
000390 74 8e 88 be 50 00 ce bd 70 07 53 3e 73 e7 e2 bd
       -0.26671183 -0.10058653 0.20608306 -0.11079302
0003a0 2c e6 f7 bd 47 1e 8a be e2 e0 3e be e6 11 22 bc
       -0.12104449 -0.26976225 -0.18640473 -0.009891963
0003b0 2a 59 42 3e 70 53 ca bd 31 01 4c bc b9 a6 87 be
       0.18979326 -0.09879196 -0.012451456 -0.26494387
0003c0 2c 8a cd be 25 1c 17 3e 52 ab 42 3e 24 b0 30 bc
       -0.4014448 0.1475683 0.19010666 -0.010784183
0003d0 c5 79 51 3d 6b 4e 09 3d a6 9c 4a be 05 d5 74 be
       0.05114152 0.03352205 -0.19786319 -0.23909386
0003e0 ce 02 7d 3e 55 de 8b bd 7f b9 09 bd 47 21 3a 3e
       0.24708101 -0.06829516 -0.03362417 0.18176757
0003f0 a9 0d 0f bd 67 f4 6b be d9 91 bc be 50 96 84 bd
       -0.034925137 -0.23042451 -0.36830023 -0.06473982
