jax_unirep/weights/1900_weights/embed_matrix:0.npy (npy, 1120 bytes, 1 tensors)

array f4 [26, 10]
00000000: 4000 723f 60e3 29bf b036 7dbe 38c0 4abf
00000010: e058 883e e0fc 25bf 20e2 fe3e e05d ae3e
00000020: 10ab 5c3e 8863 5bbf 63ac 7d3e 5a41 953e
00000030: 4e58 c6bf d9b0 fc3f ea36 b4bf 6c14 1040
00000040: 4bfa 86bf 95b1 f73f d8a2 f53e 95bb 0940
00000050: d0ef 13c0 c2fc 96bf f7cb f3bf e42f b83c
00000060: 284a 53c0 f976 923f e5f5 c3bd 8551 0b3f
00000070: 086d ce3f e17d 953f c166 77c0 31b7 a6be
00000080: 24b1 f5bf a1ff eb3f 132a b7bf f214 e53f
00000090: 0073 a93e e6c0 483e 472c babc 9ff9 503f
000000a0: c9a8 0bc0 5816 5abf e512 fcbf 3259 44bf
000000b0: 89c3 20c0 3cc0 543f 6fb3 a8bd ac16 2940
000000c0: bc07 893f fa07 be3f ad25 3ac0 1eb8 fbbf
000000d0: 7b64 aabf a690 2240 f33a 463f 1b2a a23f
000000e0: e205 85bf d164 0a40 989a d13f 09b3 f1bd
000000f0: e964 b1bf c128 fabf 181d a7bf 70c0 ef3f
00000100: bcd4 cdbf 0599 6b3f aa2d c2bf a84d 3040
00000110: 1b15 c83f 6923 a1be 630c 78bf 69a0 d8bf
00000120: 4203 0cc0 7f0c 0540 499f 61bf c9f2 103f
00000130: a0e0 553f 1190 d13f 1621 34be 4469 2040
00000140: 6607 22bf 52d3 cfbf b34d 33c0 29a8 0a40
00000150: 73f1 fbbe 4516 863f aceb 8cbe efa6 4f3f
00000160: 7d28 01be f945 2140 721a 37c0 bc81 b53e
00000170: 1b5f 28c0 b87c d83f d012 6d3e de1a 403f
00000180: c7d1 a33e 515b e13f 7ac1 b13f 9338 ff3f
00000190: d880 2abf 55a1 0fbf 9194 25c0 460f ea3f
000001a0: 6442 09c0 d9c4 713f dae5 b2be 6634 e83f
000001b0: e2d5 d43f f6d4 4b3f 5d7f 82c0 31bf 00c0
000001c0: 90b9 a53e 5f7b ec3f eee7 babf 439d c33f
000001d0: b044 acbf f2ef 20c0 b55d 133e 1f53 4840
000001e0: 567e 1d3f 5e67 b53d 8543 443f 908e 1bbf
000001f0: effd 5ebf 2dc4 abbe d1fe 80bf 582c 19be
00000200: b81f 43bf 9d2c a93e d5f3 ecbf 0d14 38bf
00000210: 5aaa b73f 2d91 2540 cbf2 aebf 505b 813f
00000220: 86e4 ef3f 4d9c 0f40 10b2 e93f d18e 1840
00000230: c621 7e3d 0d84 51c0 e5d6 b1bf 3958 f6be
00000240: 964c dd3e 99f2 0340 7cc0 f33c 5005 1f3f
00000250: dece 7040 7fe1 5140 d6c6 39bf 0ed1 0dc0
00000260: 2f3d 81be 1e3e 0540 13a5 0fc0 d5a4 dc3e
00000270: 030a 59bf 2149 af3f b8e5 21be b90c 1b40
00000280: 4544 a0bf 09e0 7bbf 3c9c 38be 8c08 2d3f
00000290: 0f84 6ebf 2bd2 0e40 733d 02c0 8a1f e83f
000002a0: 1f4a 85be c105 2940 a9de 88bf a558 e43d
000002b0: 16ad 08bf ebb3 093f 9e75 35bf b005 3140
000002c0: 8ac0 edbf b911 fe3f 910e 793d 57f3 3040
000002d0: 6241 26bf ce1f 11bf 57ed 84bf 3576 c23f
000002e0: d800 adbf 9b65 8840 4dc9 cd3e 0fdc 833f
000002f0: a07c 32bf 2e91 b73f aadc febf c960 a7bf
00000300: 41b3 92bf 4b06 583f a0eb 93bf 52cd 8740
00000310: c277 4c3f 49fc a73f 4532 a4bf 0709 193f
00000320: 93b9 0cbf db95 10c0 7d8c 65be 1aed 0440
00000330: f214 2ec0 240f a140 a76b da3e a97d f6be
00000340: 16a8 483f 6cd7 febe b537 d5be c84e 2d3f
00000350: 120c 82bf e1e0 f23f 672b c8bf edce 2940
00000360: 1f3a ccbf 54a5 303f 4992 893f b6d9 1840
00000370: 4161 f93e d70a f0be 7eb4 573f 30ab 72bb
00000380: abf9 543f b58d bb3e c1df e43e 9bea ef3e
00000390: 1856 2cbf 114b 403d 9060 7ebe e07a a1bd
000003a0: ec2c 79bf c09a 853e 78aa 8a3e c08c 7abd
000003b0: f03b b6be 4086 6bbf 60de e93e b8df a2be
000003c0: e27b 2f40 b366 eb3f cdb5 12c0 5d3f 4dbf
000003d0: 2437 f2bf 0ba8 8340 ae4b 1340 c984 9fbf
000003e0: d953 6040 d5f8 98bf d812 cdbe 60be dbbe
000003f0: d417 31bf 44bc 313f 7891 4b3f f880 cebe
0.9453163 -0.6636257 -0.24727893 -0.7919955 0.26630306 -0.6483898 0.49781895 0.34055996
0.2154963 -0.8569875 0.24772792 0.29151422 -1.5495698 1.974147 -1.4079258 2.2512465
-1.0545133 1.9351069 0.47975802 2.152074 -2.311512 -1.1795886 -1.904662 0.022483774
-3.3014011 1.1442558 -0.09568385 0.54421264 1.6127024 1.167904 -3.8656466 -0.3256164
-1.9194684 1.8437387 -1.4309715 1.7897017 0.3309555 0.19604835 -0.022726191 0.8163089
-2.1821768 -0.85190344 -1.9693266 -0.766986 -2.5119345 0.83105826 -0.08237349 2.6420088
1.0705485 1.4846184 -2.9085495 -1.9665563 -1.3311914 2.5400786 0.774337 1.26691
-1.039242 2.1624033 1.6375303 -0.11801726 -1.385892 -1.9543687 -1.3055754 1.8730602
-1.6080546 0.92030364 -1.5170186 2.7547398 1.5631441 -0.31472328 -0.968939 -1.6923953
-2.1876988 2.0788877 -0.88133675 0.5662046 0.83545876 1.637209 -0.17590746 2.506425
-0.6329254 -1.6236365 -2.8016174 2.1665137 -0.4920765 1.0475546 -0.27523553 0.81114095
-0.12613101 2.5198958 -2.860989 0.35450542 -2.6308048 1.6913061 0.23151708 0.75040996
0.31995985 1.7605993 1.3887169 1.993914 -0.6660285 -0.5610555 -2.5871928 1.8285911
-2.1446772 0.9444099 -0.34940988 1.8140991 1.6627772 0.7962183 -4.0780473 -2.0116694
0.32368135 1.847515 -1.4602029 1.5282367 -1.3458462 -2.514645 0.14391215 3.1300733
0.615209 0.08857606 0.76665527 -0.6076441 -0.8710622 -0.33548108 -1.0077764 -0.14958322
-0.76220274 0.3304185 -1.8511912 -0.71905595 1.4348862 2.5869858 -1.3667845 1.0105991
1.8741615 2.2439148 1.8257465 2.3837168 0.062043928 -3.2736847 -1.3893706 -0.48114184
0.43222493 2.061682 0.02975487 0.6211748 3.7626262 3.2793882 -0.72569025 -2.2158847
-0.25241992 2.0819163 -2.2444503 0.43094507 -0.847809 1.3694192 -0.15810287 2.4226515
-1.2520834 -0.98388726 -0.18028349 0.67591166 -0.93170255 2.2315776 -2.0350006 1.8134625
-0.26033112 2.6409762 -1.069295 0.1114972 -0.5338911 0.5379016 -0.70882595 2.7659721
-1.8574383 1.9849159 0.060804907 2.7648523 -0.64943516 -0.56689155 -1.038493 1.5192324
-1.3515882 4.262403 0.40192643 1.0301532 -0.6972141 1.434118 -1.9911091 -1.3076411
-1.1460954 0.843846 -1.1556282 4.2438135 0.79870236 1.3123866 -1.2827841 0.597794
-0.54970664 -2.2591465 -0.22416873 2.0769715 -2.7200284 5.033098 0.42660257 -0.48142746
0.7838148 -0.4977373 -0.41644064 0.67698336 -1.0159934 1.8974878 -1.5638245 2.6532547
-1.5955237 0.6900227 1.0747768 2.388288 0.4870701 -0.4688327 0.84259784 -0.0037028305
0.83193463 0.3663155 0.4470196 0.46858677 -0.6731887 0.04694659 -0.24841523 -0.07884765
-0.9733417 0.26094627 0.27083182 -0.061169386 -0.35592604 -0.92001724 0.4567747 -0.3181131
2.7419362 1.8390716 -2.2923462 -0.8017481 -1.8923078 4.114263 2.3014941 -1.2462398
3.5051177 -1.1950938 -0.4005344 -0.42918682 -0.69176984 0.69427896 0.7951884 -0.4033277
