jax_unirep/weights/1900_weights/UniRef50/fully_connected_weights:0.npy (npy, 190080 bytes, 1 tensors)

array f4 [1900, 25]
000000 8e 3e 09 bd 33 6a e8 3d f5 d5 46 be 5e 55 bf 3f
       -0.033506922 0.11348381 -0.19417556 1.4947927
000010 ec 39 5a bd 77 fe 3f be 8d c6 6d bd c1 b7 58 3d
       -0.053277895 -0.18749414 -0.05805068 0.052909616
000020 7a 44 7b 3e a0 c8 08 be 26 0e 9f bd 37 7f 02 be
       0.2453784 -0.13357782 -0.077663705 -0.12743841
000030 0d bd 92 bc ee a5 c3 3d b5 65 44 bd 5f e2 9f bd
       -0.017912412 0.09553133 -0.047948558 -0.07806849
000040 48 aa 04 be 1d 61 83 bd 2f fb a4 be 70 ff 12 bc
       -0.12955582 -0.06415007 -0.32222888 -0.008972034
000050 2f a2 6c bd 11 35 10 be e7 af e0 bd c9 63 22 be
       -0.057771858 -0.14082743 -0.10971051 -0.15858378
000060 7a 39 fb be 24 8f b7 3c 65 28 91 3c 30 6e ff bb
       -0.4906729 0.022407122 0.017719457 -0.007795118
000070 e3 e8 81 ba 42 b9 89 b9 82 df 6a 3c 00 bb 33 3c
       -0.0009911325 -0.00026268704 0.014335515 0.010969877
000080 23 00 77 3c 4f d9 bd 3c 27 44 88 3b 9c 09 e7 3a
       0.015075716 0.02317491 0.004158515 0.0017626765
000090 3d af 20 3d 22 f5 60 bb 1a e8 86 3c 1d 19 95 3c
       0.03922962 -0.0034325798 0.016468097 0.018200452
0000a0 79 d4 ad 3c 3d 82 27 3d 31 4e ea 3c 28 b9 0d 3d
       0.021219479 0.04089569 0.028601738 0.034600407
0000b0 f3 7f bd 3c e4 49 da 3c c1 d3 dc 3c ec be 4d 3c
       0.0231323 0.026646562 0.02695644 0.012557726
0000c0 fc 62 0b 3b b1 2d 62 3d 89 1d 9e bd b4 5c 0a be
       0.0021268716 0.055219356 -0.07720477 -0.13511926
0000d0 7e 7b 1e be 56 15 f2 3c 94 48 78 3d 86 8c b3 3c
       -0.15476796 0.02955119 0.06061609 0.021917593
0000e0 4e a1 97 3c 91 64 41 3e 51 c2 4d bd b0 b5 f1 bc
       0.018509533 0.1888602 -0.050234143 -0.02950558
0000f0 67 32 6b 3d 2f a5 a1 3d 03 71 da 3c b3 f6 74 bd
       0.057421114 0.078928344 0.026665216 -0.059805583
000100 0a 9d 0c 3e 33 6b 2f 3c b2 a0 b6 3c 64 90 ca bd
       0.1373178 0.010706711 0.022293422 -0.098908216
000110 07 cd 0c be 3a e0 3b 3d 58 56 79 bc f5 67 ca 3d
       -0.13750087 0.045868136 -0.01521834 0.098831095
000120 8f bd ab 3c 8d a2 af 3d 67 74 1b 3d 32 1b ed 3c
       0.020964412 0.08575926 0.037952807 0.028943632
000130 60 67 32 3c 4f 65 30 3d 39 22 78 3d c9 63 3b 3d
       0.010888904 0.043065365 0.060579512 0.04574946
000140 27 15 03 3d bf 03 5c 3d 3e da 66 3d c5 a6 1b 3c
       0.032002594 0.05371451 0.056360476 0.00950021
000150 e0 0f ed 3c 37 02 79 bd 96 61 25 3e 65 d7 94 bb
       0.028938234 -0.060793128 0.16150507 -0.0045422786
000160 71 a2 9c 3d d4 c8 d4 3c 3a 0b 63 bc 3c 8e 46 bc
       0.07648171 0.025974669 -0.013857657 -0.012118872
000170 e3 21 8e 3c 50 6b 32 3d 27 d5 cf bc e5 09 05 bd
       0.017350143 0.043559372 -0.025370194 -0.03248014
000180 78 b5 fe 3d 65 43 67 3d 8e 15 ee 3d 49 23 bf 3c
       0.12436956 0.056460757 0.11625205 0.023332255
000190 39 9d 42 3c 65 6c 74 bb 24 9d a8 bb 00 3d 10 bc
       0.011878305 -0.0037296053 -0.0051456857 -0.008803606
0001a0 34 11 c5 bb de 6e 6d 3b 6e b9 f7 bb f3 e5 b9 ba
       -0.0060140137 0.0036229412 -0.0075599467 -0.001418291
0001b0 6b fc 87 3c 3d cc a9 bb 75 82 df bc 90 6b fe bd
       0.016599854 -0.005181818 -0.027283886 -0.1242286
0001c0 73 90 4d bc fc ed ca bc f3 9d 7e 3b 47 37 3a bc
       -0.012546646 -0.024771683 0.003885147 -0.011365718
0001d0 1d 7d cf bb fc e4 18 3c e0 2a c8 3b d0 70 b3 3a
       -0.0063320533 0.009331938 0.0061086267 0.0013690237
0001e0 39 c9 e8 ba f6 74 36 be 90 e4 17 be c8 0a 39 be
       -0.0017760164 -0.17818055 -0.14833283 -0.18070519
0001f0 10 0b ef bc 4e 66 90 bc 00 3e 9b be 14 69 b3 bd
       -0.02918008 -0.017626908 -0.3032074 -0.087602764
000200 2a a2 78 be 8d ae ad 3d de a3 95 bc 2d d9 d9 bd
       -0.2428061 0.084805585 -0.018266615 -0.10637126
000210 4d be 4e bd 65 54 8b 3b 93 a1 67 be 80 81 e0 bd
       -0.050474454 0.004252004 -0.2262023 -0.109622
000220 ec 2d 40 3b 64 1a 26 bc 3b a4 21 3e d7 d7 8a bc
       0.0029324247 -0.010138128 0.15785305 -0.016948624
000230 95 6e 02 3d e0 42 a7 3d a0 df dd 3d e1 d0 06 3d
       0.03184374 0.08167052 0.10833669 0.032914046
000240 87 b5 81 3d d2 ff 00 3e b9 dc 8f 3d bc 76 15 3d
       0.06333452 0.12597588 0.070245214 0.036490187
000250 61 86 28 3d 02 1d 07 3d 37 cf 32 3d 6b 5f 45 bd
       0.04114378 0.03298665 0.043654647 -0.0481867
000260 4c 17 33 bc 43 c5 67 bd b6 2d 7e bd 9d 63 f1 bc
       -0.010930847 -0.056584608 -0.062055312 -0.029466445
000270 97 38 95 bd b3 35 28 bd b8 60 83 bd 80 d7 20 bd
       -0.07286184 -0.041066837 -0.06414932 -0.039268017
000280 ce 7b b5 bc ee 9c 98 be 50 4a 7e bd 57 d8 70 bd
       -0.022153761 -0.29807228 -0.06208259 -0.058800068
000290 f4 ee ec bb a3 83 9b b9 1c 66 18 3d d0 21 2d 3d
       -0.007230634 -0.0002966198 0.037206754 0.042268574
0002a0 ce 05 b5 3c 89 13 19 3d 46 6b 48 3d f0 c1 93 be
       0.022097494 0.037372146 0.04893043 -0.288589
0002b0 52 ce 86 be 45 df a2 be 28 98 6d bd b2 0b e4 bd
       -0.26329285 -0.31810966 -0.058006436 -0.11135043
0002c0 ca 6b 4c 3e cb fb 13 3e 3f f6 06 3e f3 54 a4 3d
       0.19962993 0.1445152 0.13179873 0.08024015
0002d0 6b 35 db 3c 15 8b 6e 3d f7 2a 0d be 2c 9b 1e 3e
       0.02675887 0.058238108 -0.13785921 0.15488881
0002e0 3a ca 2c 3e 4b f2 51 be 31 94 ec bc 23 41 94 bc
       0.16874018 -0.20502584 -0.028879257 -0.018097466
0002f0 b2 ff e2 3d 2a 4c f6 bd 84 78 8a be ef 25 f4 bd
       0.11083926 -0.12026246 -0.2704507 -0.11921298
000300 e2 b7 86 bb a9 bb 05 3e b2 44 0a 3d 75 e1 fe bd
       -0.004111276 0.13059868 0.03375692 -0.12445346
000310 60 29 81 bd fe ab 71 bc 52 9f 6e bc 7a 1b 20 3e
       -0.0630672 -0.014750479 -0.014564352 0.15635481
000320 ac fb 0e 3d 3d 6f 56 be a8 fe 5a bd 3f db 40 bd
       0.03490798 -0.20940872 -0.053465515 -0.04708409
000330 70 8c 8e 38 ad cd 8e 3d 3e a1 77 3c 8b 22 fa 3b
       6.797246e-05 0.06972823 0.015114127 0.0076335124
000340 ca ae a9 3d ab 8d 16 3e 58 a3 22 bc 13 51 0b 3f
       0.082852915 0.1470248 -0.0099266395 0.54420584
000350 3c aa 05 3e 70 a2 ed bd 92 e8 35 3e 46 4b 0e 3d
       0.1305322 -0.11603248 0.177645 0.034739755
000360 87 67 e9 bc c6 79 27 3d c4 ea af bc 6c 98 dd bc
       -0.028491748 0.040887617 -0.02147425 -0.02705022
000370 8e 4e 0a 3e 36 54 f6 3e d7 44 07 3f 7b 56 fb 3e
       0.13506529 0.48111123 0.52839416 0.49089417
000380 ab d1 10 3d ab 36 1b bd 5b 7e 08 bd fb 2e db bc
       0.035356205 -0.037893932 -0.033323627 -0.0267558
000390 0f dc b0 bc f6 b4 c8 bc 04 a3 0b bd 5f b3 bd bc
       -0.021589307 -0.024500351 -0.03409101 -0.02315682
0003a0 e9 66 b9 bc 47 b4 8e bc aa 18 3b bd 47 33 41 bd
       -0.02263208 -0.017419947 -0.04567782 -0.047168043
0003b0 16 5f e4 bd 65 d4 e4 bc 40 f4 c6 bc 82 a4 db bc
       -0.11150949 -0.027933309 -0.02428639 -0.026811842
0003c0 2d 39 28 bd 82 06 f3 bc c1 6b f0 bc c0 b3 f0 bc
       -0.041070152 -0.02966619 -0.029348256 -0.029382586
0003d0 59 b2 18 bd 70 76 4c bd af 44 ec bd fb e4 b5 bd
       -0.03727946 -0.04991764 -0.11536538 -0.08881565
0003e0 9b 74 f1 bd 93 0c 88 bd 4a 7f dd 3c be 82 21 bc
       -0.11789819 -0.06643023 0.027038235 -0.0098578315
0003f0 01 b5 0d bc bd fd b7 3b 45 e4 59 3c c9 cd b8 3c
       -0.008649112 0.0056149648 0.013299053 0.022559064
